model.pt (torch, 446799 bytes, 8 tensors)

fc1.weight f4 [128, 784]
00000000: 4d0d 10bd 2256 f03c 533c c6bc 48bb 6a3c
00000010: 4efc d5bc 88ca 303c 40b7 5bbc bad2 af3c
00000020: 6234 bc3c e461 f0bb 306c 613b 3557 8fbc
00000030: a8da d73c af04 b8bc bf21 a63c 80b2 02bc
00000040: 7c3c d0bc 9e4b c9bc e61c eb3c f4b9 0b3c
00000050: 48bd d33c a678 ff3c d8aa a4bc 64d6 2c3c
00000060: f007 673c 6a02 cabc 567f a13c 4ad7 5fbc
00000070: 003d ffb9 0cf1 fcbc 8096 c939 0601 f53c
00000080: ef9e 0abd 20e8 203c f151 b23c 8f56 1abd
00000090: af07 09bd 60ab 1cbd 2723 fcbd 35f6 26be
000000a0: aa6d 3cbe 40da c7bb b50e a73d de29 be3c
000000b0: 59c3 a8bd daf4 40be b197 c4bd 7abf 91bd
000000c0: ca92 1dbc 8c4b 0cbd 6ee9 07bd 248e 02bc
000000d0: d03f bebc 0c7c c73c 6073 e13a f4f3 0a3c
000000e0: 209e e43b 0c0f a63c 8eaa b13c 8c08 d5bc
000000f0: fb78 0e3d ced4 1ebb 1996 09bd e843 d4bc
00000100: e0e6 833d 2888 8c3e 0479 aa3e dc32 a23e
00000110: 489e f83d 0781 58bc fcc1 74bd 01c3 ffbd
00000120: c210 4f3d d8c9 00be 0906 093d 0299 1fbd
00000130: 84b2 553d b194 01bd 1567 823d bafe 063e
00000140: a0b8 d03b 9f7e 6d3d 00d3 9e3a 0c63 a5bc
00000150: 04e0 3f3c e808 c0bc a3c4 173e 009e 9a3e
00000160: aa55 b13d b2a6 a33e 25ad 3c3e 64f7 3e3e
00000170: 9771 1b3f a541 043f ee45 af3e ba60 7c3e
00000180: 6f55 af3e 3d70 f33e 5884 9f3e 7f48 0abd
00000190: 166d 183e 0f16 d63d 026b 913e 999f 1a3e
000001a0: 2085 d03e 5fd6 4e3d 6f72 6f3e 953a bb3e
000001b0: 2382 883e ad5a 103d 948f cbbd d696 04bd
000001c0: 4f02 093d 4d09 953d 238b 7a3e af75 ab3e
000001d0: 5a68 a6be 85c6 42bd 85b4 4ebe e996 bb3d
000001e0: 618d 8f3e 945a a73e fa4f c73e 74bd 033e
000001f0: 4da6 913e cf4a dc3e f240 cb3e b444 af3e
00000200: 6eba 6e3e 393f bc3e 38f1 913e 8242 313e
00000210: 1f79 8f3e 0067 513e 5d76 013e ba5e f43d
00000220: 404a a13e 3390 243e b048 303e c052 9bbb
00000230: 474e 073d 64f0 593c 0216 1d3e 91a5 643e
00000240: 13cc 81be ced8 173d 0303 8f3e cc4d e93e
00000250: aaf9 8d3e 9f93 8a3e 36ef 663c 6a33 023d
00000260: d50d 983d 6da2 e4bd 9ece e13d 70ab 133e
00000270: 8a8a ed3d 2c66 173e c9c9 243e 4b11 d23e
00000280: caa4 be3e afe6 753e 371d 0e3d 90bc 85bc
00000290: c0cd d03d d0d7 823e a7bc 323e 13c4 553e
000002a0: 7bd8 033d c47e 363e b86e d53d bfbe 573d
000002b0: ab7f e03d 06c6 ad3e 7654 a43e f1ef b93e
000002c0: a4c5 863e 1eb2 763e 1df2 dabc 3180 0fbe
000002d0: 6b48 0a3a 8ec9 d6bb 0407 313d 232f 9d3e
000002e0: 1963 473d 3ebf ce3d 6ea4 abbd f3a2 45bb
000002f0: 7832 213e aecc 473e 8909 bd3d 8fd3 a33d
00000300: 6a09 aabc 7a68 003e 456e c13b 4131 09be
00000310: b0f4 ddbc 8482 423e 8be3 613e c4d0 183e
00000320: 5c02 a93e 2c13 423e 0f82 c93e ac0d 463e
00000330: c658 083e 85ce 9c3e 8cd1 623e 8e12 2fbe
00000340: 9453 14be 2373 83bc d1d3 d8bd 83e0 4e3e
00000350: cc55 423c 2913 7bbd 9495 22bd 3cbc 14be
00000360: ca1c a33d 54e5 91bd 9505 3e3d 1ea8 023e
00000370: e2c9 44be 30cc 6e3e c295 073e 7962 96bd
00000380: 40c4 153c 4b70 2dbe 16f7 a13e 9acc 8d3e
00000390: 7391 493e c663 84bd 58a0 c93d e941 c13d
000003a0: 3443 5b3d be8c 1f3e 4d37 49bd 6f40 14bd
000003b0: 7e33 953d 3a66 a73d 41ca 2bbe 7fbc 9b3c
000003c0: 5f73 a1bd 5b0d 11be 955d 2a3d 9563 a23b
000003d0: f116 163c 894f 97be baf4 363e 4a22 693e
000003e0: 0acc 37be 987f 923d 7b2a ad3e 0e47 843d
000003f0: 76ca 54b9 634f b5bd 5b06 37be 2f83 443e
-0.035168935 0.029337946 -0.024198687 0.014326878 -0.026121285 0.010790475 -0.013410389 0.021462787
0.022974197 -0.007335888 0.003439676 -0.017497638 0.02634938 -0.02246317 0.020279763 -0.007977128
-0.025419466 -0.02457219 0.028700303 0.008528221 0.025847092 0.03118546 -0.020100996 0.010549162
0.014101014 -0.024659354 0.019714039 -0.013662169 -0.0004868284 -0.030876659 0.0003844984 0.029907715
-0.033842977 0.009820968 0.021767588 -0.037680205 -0.033454593 -0.038249373 -0.12311392 -0.16304858
-0.18401209 -0.0060990155 0.08157102 0.023213323 -0.082403846 -0.18843403 -0.09599245 -0.071165994
-0.009617517 -0.034251735 -0.0331816 -0.007968459 -0.023223788 0.024351142 0.0017200522 0.0084810145
0.006976858 0.020270847 0.021687772 -0.026005052 0.034783345 -0.0024235728 -0.03359041 -0.025911286
0.0644052 0.2744763 0.33295453 0.31679428 0.12139565 -0.013214356 -0.05975531 -0.12488366
0.05055309 -0.12576997 0.03345302 -0.03896428 0.0521722 -0.031635944 0.063673176 0.13183108
0.0063696653 0.057982083 0.0012117326 -0.02018883 0.011711124 -0.023441747 0.14821105 0.3019867
0.08658917 0.31963116 0.18425424 0.1864906 0.607202 0.51662666 0.3423304 0.24646273
0.34244868 0.4754657 0.31155658 -0.033760544 0.14885363 0.10453426 0.28401953 0.15099944
0.40726566 0.05049741 0.23383497 0.36568132 0.26661786 0.035242725 -0.09939495 -0.03237041
0.033449467 0.072771646 0.24467139 0.33488223 -0.3250149 -0.047552604 -0.2018605 0.09159643
0.2803755 0.32686293 0.38928205 0.1286524 0.2844719 0.43025824 0.39697987 0.34232104
0.23313305 0.36766985 0.28504348 0.17310527 0.28022096 0.20449448 0.12642808 0.1193213
0.3150196 0.16070633 0.17215228 -0.004740089 0.033033635 0.0133019425 0.15340427 0.22328784
-0.2535101 0.037071995 0.27931985 0.45567167 0.2772954 0.2706575 0.014095118 0.031787314
0.07424513 -0.11163793 0.11025737 0.14420867 0.1159869 0.14785069 0.160926 0.41028818
0.372351 0.2401378 0.03469583 -0.016325265 0.10195494 0.25555277 0.17454778 0.20875578
0.032188874 0.17821795 0.104215086 0.052672144 0.10961851 0.33940142 0.3209569 0.36315873
0.26322663 0.24091384 -0.026726777 -0.14013745 0.00052750733 -0.006554789 0.04321958 0.30700025
0.04867849 0.1009507 -0.08380972 -0.003015694 0.15741909 0.19511673 0.09230334 0.07999336
-0.020756442 0.12539855 0.0059030377 -0.13397695 -0.027094215 0.189951 0.22059457 0.14923388
0.33009613 0.18952626 0.3935704 0.19341153 0.13315114 0.30626312 0.22150248 -0.17096922
-0.14485008 -0.016046112 -0.10587276 0.20202832 0.011861276 -0.06129757 -0.03969343 -0.1452493
0.079644755 -0.07123819 0.046392042 0.12759444 -0.19217637 0.23320079 0.13240722 -0.07343001
0.009141028 -0.16937368 0.31633824 0.2769516 0.1968439 -0.06464343 0.09845036 0.094363995
0.053530887 0.15581033 -0.049125005 -0.03619426 0.07285212 0.08173795 -0.16776372 0.01901078
-0.078833334 -0.14165251 0.041593153 0.0049557188 0.009160743 -0.29552868 0.17866793 0.22766986
-0.17948928 0.07153243 0.33821473 0.06458865 -0.00020293318 -0.088530324 -0.17873518 0.19190668

fc1.bias f4 [128]
00000000: 4191 97bd b986 80be 038d 9dbd 9829 a2bd
00000010: 6bad e73d d863 06be e979 14be 6543 84be
00000020: fc69 94bc ca0f 1a3d b97a dbbd d38e 2cbe
00000030: 0431 793e 5d2c abbd 44f3 36be 99f7 d2bc
00000040: 0740 c4bd 35b6 c6bb 9cda 9fbc 3fee 35be
00000050: 7136 48be 0aad 923e 56d4 ddbc 89f4 5bbd
00000060: 1f00 ee3d 8f50 bbbd 7a09 953c 8c73 743e
00000070: cf2a 52bc ea88 4ebd 762b 823e 68c8 343e
00000080: 1dc5 16be b4c1 66be 589b 78bc e92d 57be
00000090: 234d 04be 34f5 e9bd a6fe adbd d6c2 7abc
000000a0: 386e 8abd a813 643c e453 10be 3f48 babd
000000b0: 99dd a2bd 7eb3 5a3e 1979 043d de04 0abe
000000c0: de1a ecbc 95a1 0bbd ee2b 4e3e dc76 a63e
000000d0: a9d1 babd 90ff 0bbe 1387 22be 5a9d 01bf
000000e0: 1e0f 9d3e a406 8c3e 1f03 323e ffb9 3c3e
000000f0: 3b1f 5abd 06c8 623d eb71 bfbd fcf5 c1bb
00000100: dfbe 52be 36e7 863e d5e3 67be adca a1be
00000110: ef0b 9bbe 021a d33d 8f91 e4bd b07e a93e
00000120: 62f4 94bd 86a4 7d3d 8103 b53c 34b1 3f3c
00000130: ff77 493e 571d 803e 5bc2 5ebd a236 a33e
00000140: 86fa 093e be78 efbd 549f b3bd 4f65 a93e
00000150: 75a2 b6be 23e3 d33c b2c5 03bc 61ab c0bd
00000160: 0d5f 26be 6feb b23e 9188 82be 99ad afbc
00000170: bb40 a73e 6642 a0bd 14f5 3dbd 8f4f 35be
00000180: 7f33 13be 6ea7 9fbd ff63 093e 8ebc c73d
00000190: a698 d4bd dd88 9ebd 8016 a23d 0d16 9c3e
000001a0: b472 dc3d 76a0 fbbc a5e5 a8bc dced 3e3e
000001b0: 80ce 4abe 1bd0 c6be 57b6 823d 21f9 a93e
000001c0: 2054 cf3d 17b0 59be ae81 6cbe bfc1 703d
000001d0: a03c e2bc 9857 21be 7713 63be 13a0 98bd
000001e0: 3850 c4bd 23c5 383d e3a7 0ebe b7bd 703d
000001f0: f7de b53e d5d0 413e 0e3d 28be 0754 2b3e
-0.07400752 -0.25102785 -0.076929115 -0.0791809 0.11312374 -0.13124025 -0.1449963 -0.25832668
-0.018116944 0.037612714 -0.10716767 -0.16851358 0.24335104 -0.08358071 -0.17866236 -0.02575283
-0.09582525 -0.0060642012 -0.01951342 -0.17766665 -0.19552018 0.28647643 -0.027078789 -0.053700004
0.11621117 -0.09146225 0.018192995 0.23872203 -0.012827589 -0.05042354 0.25423783 0.17654574
-0.1472363 -0.2253483 -0.015173756 -0.21013607 -0.1292005 -0.11423722 -0.08495836 -0.015305242
-0.06759304 0.013920702 -0.14094502 -0.09095811 -0.07952423 0.21357533 0.03234205 -0.13478419
-0.028821405 -0.034089644 0.20133945 0.32512558 -0.09122021 -0.13671708 -0.15871839 -0.50630724
0.30675596 0.27348816 0.17384003 0.18430327 -0.05325244 0.05536654 -0.093479 -0.005919216
-0.20580624 0.26348275 -0.22645505 -0.31599942 -0.30282542 0.10307695 -0.111605756 0.33104467
-0.07273175 0.06192448 0.022096397 0.011699963 0.19674681 0.25022385 -0.05438457 0.3187762
0.13474473 -0.116929516 -0.08770624 0.33085105 -0.3567082 0.025865143 -0.00804274 -0.09407688
-0.16247196 0.34945247 -0.25494817 -0.021445083 0.32666573 -0.078251645 -0.046376303 -0.1770613
-0.14375113 -0.077956066 0.13417052 0.09752761 -0.10380678 -0.07740948 0.07914448 0.30485573
0.107640654 -0.030716162 -0.020617316 0.18645424 -0.19805336 -0.38830647 0.06382435 0.33197883
0.101234674 -0.21258579 -0.23096344 0.05877852 -0.027616799 -0.1575607 -0.22175394 -0.07452407
-0.09585613 0.04510988 -0.13931231 0.058774676 0.3552167 0.1892732 -0.1642954 0.16731273

fc2.weight f4 [64, 128]
00000000: 143a f5bd 8dec a63c efa7 c0bd b186 07bd
00000010: 955d ce3b 19c7 07bd f099 f63c 04de 913c
00000020: b6b5 a8bd 0de0 6abd cb22 803c abaa 07be
00000030: 6d2b 9abd 9f54 a6bd ceb5 c9bc 6c98 c43c
00000040: e0d0 88bd 8d13 bbbc 5193 50bd 9c29 b73c
00000050: 92ba 08bc 1524 6abd 92d5 88bd 0ddf 9ebd
00000060: d2a4 bbbd f54d 48bc fdc6 f2bd 6878 433d
00000070: 880d 583d 3214 523d 7bba f73b c1f9 833d
00000080: 39e9 93bd 0561 253b d52f e03a 6407 08be
00000090: b71e 01be 017f 83bd 997b c7bd 018f 29bd
000000a0: c90b f2bd b5c3 883d b5f7 c3bd 7d68 ba3c
000000b0: 2f03 3fbd 1698 8dbd f1ff e7bd 1ac6 70bb
000000c0: d84a 4a3d f38c 2abd e46d acbd 4bfe 55bd
000000d0: 4d41 d3bc dc78 63bd d6fb 14bd c1a7 a93a
000000e0: 7894 a1bc f847 6b3d 7482 d8bd 7697 d1bd
000000f0: f65b d1ba 34be 7ebd eeac 1abc 37e4 55bd
00000100: 2aa3 2dbc a9d0 6d39 1d92 47bc 9fb0 08be
00000110: 18c0 e13c 011d 1abd 130b 8e3c 262f 64bc
00000120: c08e 89bd 9977 97bd 07e0 32bd 42fb 83bd
00000130: 1850 05bd 0552 9fbb 9f52 0fbd 17af 9d3c
00000140: dd2f bdbd 1fda b8bd 0156 49bd 4270 86bd
00000150: 6b0d bfbd cb4d 6dbc 498b 793a ac23 8dbb
00000160: a369 b6bb 6ace 4f3c ea17 093b da00 c6bd
00000170: c0c5 92bd f2e2 bcbd c105 ed3c dedf 5cbd
00000180: 61d8 e6bd 3a31 9e3c 5a14 69bd 0019 f7ba
00000190: 08ae 5cbd 5442 9b3c 62a7 3abc 7fa7 50bd
000001a0: 7a8f 913d 6259 203d 456d 933d 726c 8cbd
000001b0: 44a7 8ebd f152 feba a636 4bbc 9274 3bbd
000001c0: 98d1 cbbd 5106 35bd 7404 e8bd 0373 c2bc
000001d0: ef8c 073d d14d b8bd 3675 a8bd 3890 773c
000001e0: d356 0f3b f875 c93c a93a 35bc cedd 60bd
000001f0: 0315 433c e384 53bd 3927 393a 0732 28be
00000200: a116 6f3c 97cf 483d 27d6 943e ddb7 263e
00000210: 35a4 ff3d 4ebd b53e 0ef7 213e 5c62 293e
00000220: cef1 653d 512d 9abe 842d eebd e224 ccbe
00000230: 79b7 cd3e be82 f3bd 6e0a a13e d810 ff3c
00000240: 7681 91bd b4ed 26bd 54fd 0abd c8d8 b7bc
00000250: 2959 fd3d 2718 9b3e e5a3 cc3d 255b 343d
00000260: d5f2 ad3d 6460 6b3d bd1a 943d de70 88bb
00000270: 9d0b 3bbd add0 99bd c80b bbbd f226 8a3e
00000280: 832f 563c 2682 b1be 5a5c 973c 82b8 7bbe
00000290: 012d 60be bac1 11be 53df 233e 6833 ed3c
000002a0: 33b7 523d 2453 9fbd f035 91be 13e4 543e
000002b0: cb49 aa3e 0ddc 213e 70b7 ca3d de2e 3ebe
000002c0: d949 213d da8b 6b3e 03f1 5d3e 711d a23e
000002d0: be6a 78be b92e 39be c1b9 15be c601 7e3e
000002e0: 9cc7 d03d a46e 15bf d575 883d d03b 9cbe
000002f0: 30d6 2a3e 96f5 80be e0ae 85be f51c af3d
00000300: 1310 223e b911 8abe ffcf 5d3d 883f 2cbd
00000310: 61de ffbe e2c8 69be 295b 72bd 8942 25be
00000320: c8f1 cd3d 044d acbe c8fe 063e 4f04 703d
00000330: e4a9 75be 6b69 4b3e bffa 8b3e f440 18be
00000340: d03b efbd c344 b03d a991 a0bd 6af6 0abc
00000350: 23c9 c7be a518 333e ee82 46be d036 32be
00000360: db8f cd3d 958e 493d 10ce c0be 7d81 6bbe
00000370: 7bb8 783e f1eb 513d 6a13 903d 7710 643e
00000380: cf52 99be 8a26 9c3e a947 43be 8952 a3bd
00000390: 8561 67bc 5bcf a7bd 38ac 22bd 28bf d13e
000003a0: 762e 2cbd fd2f 553d dad1 1f3c b0a6 e63e
000003b0: beda 97bd fb53 86bd 75af 83be b475 9d3d
000003c0: 2b34 95be d963 c23d c310 88be fd2f 41bf
000003d0: ee18 89bd 8513 27be fe14 06be 9f22 27bf
000003e0: c0f4 e6bd 804f 403d e680 17bd 6f41 633e
000003f0: e5b7 ea3e cfc3 6a3e 47da 193e 19fd dbbe
-0.11973968 0.020376468 -0.09407031 -0.033087436 0.006297777 -0.03314886 0.0301027 0.01780606
-0.082377836 -0.057342578 0.01564159 -0.13248698 -0.07527814 -0.08121609 -0.024622824 0.023998462
-0.06680465 -0.022836471 -0.050921742 0.022358708 -0.008345263 -0.057163317 -0.0668136 -0.07757387
-0.09162296 -0.012225618 -0.1185436 0.04772225 0.05274728 0.05128879 0.007560072 0.06444121
-0.07222218 0.002523483 0.0017104099 -0.1328407 -0.12609373 -0.064207084 -0.09740371 -0.041396145
-0.11818654 0.06677953 -0.09568731 0.022754902 -0.046633895 -0.06913774 -0.11328114 -0.0036739171
0.049387783 -0.041638326 -0.084193975 -0.052244466 -0.025787974 -0.055535182 -0.036372982 0.0012943671
-0.019724116 0.05744168 -0.10571757 -0.10233967 -0.0015972841 -0.06219311 -0.009440644 -0.052219596
-0.010597983 0.00022679813 -0.012180832 -0.13348626 0.027557418 -0.037625317 0.017339265 -0.013927257
-0.067166805 -0.07395858 -0.04367068 -0.06444408 -0.032547086 -0.0048620724 -0.034990903 0.019248528
-0.09237645 -0.09025978 -0.049154285 -0.0656438 -0.09328731 -0.014483879 0.00095193513 -0.004307231
-0.005566792 0.01268349 0.0020918795 -0.09668131 -0.07166624 -0.09222974 0.028933408 -0.053924434
-0.1127174 0.019310582 -0.056904174 -0.0018852055 -0.053876907 0.018952526 -0.011392446 -0.050940987
0.07107444 0.039147742 0.07198576 -0.06856622 -0.06965497 -0.001940338 -0.012403166 -0.045765467
-0.09952086 -0.044195477 -0.11328974 -0.023736482 0.03309339 -0.08999217 -0.08225481 0.015110068
0.002187182 0.024592385 -0.011061349 -0.05489903 0.011906865 -0.051640403 0.00070630346 -0.16425334
0.0145927975 0.049026098 0.29069635 0.16281076 0.12482492 0.3549599 0.158169 0.16541427
0.056138806 -0.301127 -0.11629775 -0.3987189 0.4017904 -0.118901715 0.3145327 0.031135961
-0.07104771 -0.040754035 -0.033933 -0.022442237 0.123705216 0.30291864 0.09992198 0.044032235
0.08493582 0.057464972 0.072316624 -0.0041638454 -0.045665372 -0.07510505 -0.091331065 0.26982838
0.013072851 -0.34669608 0.018476654 -0.24582103 -0.21892168 -0.14234057 0.1600316 0.028955176
0.051444244 -0.0777953 -0.28361464 0.20790128 0.33259425 0.15806599 0.09898269 -0.18572566
0.039377067 0.23002568 0.2167397 0.31663087 -0.24259469 -0.1808423 -0.1462164 0.24805364
0.101943225 -0.5837195 0.066631 -0.30514383 0.16683269 -0.25187367 -0.26109982 0.08550445
0.15826444 -0.26966646 0.05415344 -0.042052776 -0.4997435 -0.22830537 -0.05916897 -0.16138662
0.10055882 -0.33652508 0.13183129 0.05859786 -0.2399059 0.19864433 0.27339742 -0.14868528
-0.1168133 0.08606865 -0.078402825 -0.008481601 -0.39020643 0.1748987 -0.19385883 -0.17403722
0.10037204 0.049208242 -0.37657213 -0.22998615 0.24289124 0.051250402 0.07034953 0.22271906
-0.2994599 0.30498153 -0.19070305 -0.07974727 -0.014122372 -0.08193847 -0.03971502 0.40966153
-0.042036496 0.05204772 0.009754622 0.45049047 -0.07414769 -0.06558987 -0.257198 0.07688466
-0.29141364 0.09491701 -0.26575288 -0.7546385 -0.06694208 -0.1631604 -0.13093945 -0.652872
-0.11277151 0.046950817 -0.03698816 0.2219293 0.45843425 0.22926258 0.15024672 -0.42966536

fc2.bias f4 [64]
00000000: a181 03be 4199 80bd 5575 e53d 5b5f c43c
00000010: d4a7 5a3e dd43 9d3e 4870 833d f87a 713e
00000020: 89be 27bb 894e 14bd 10ce da3c e25a 68be
00000030: 9af3 343e 8d01 a0be d807 2b3e c749 f43e
00000040: ae32 663e 6a05 52bd be9a e53d 6b9a a2be
00000050: 67f7 32be 88c8 c7bc 9047 19be 1ccf cb3d
00000060: cc85 f3bd 2e6e 2dbd ca16 29be 365c eabe
00000070: f357 833e 724e e83c 87c2 e83b 9bd9 34bd
00000080: 758d 73be 3fb0 edbd a2ec 50bb 4798 d93d
00000090: 2a57 b33d 4ea4 c73d 1341 643d 38aa 63bd
000000a0: 9af7 0a3b 4266 1f3d fe12 683e b9bc 35be
000000b0: 8d10 763c 4d40 25be b579 55bd 0a0a 843d
000000c0: 1f5e a3bc 1680 a23d 05c2 e4bd 7ae4 533e
000000d0: c00c e43d 1e04 d1bd 2f10 103f d536 afbd
000000e0: 0996 b53e c86e 15be 2ee5 ab3d 6835 a43e
000000f0: acc1 933d 2e06 4cbd 83bd 79be 63e1 1ebe
-0.12842418 -0.06279231 0.1120402 0.02397125 0.21353084 0.30715838 0.064179 0.23582065
-0.0025595746 -0.03620771 0.026709586 -0.22690919 0.17671052 -0.31251183 0.16702211 0.47712538
0.2248027 -0.051274695 0.11211155 -0.31758437 -0.17477189 -0.024387613 -0.14968705 0.09951612
-0.11890754 -0.042341404 -0.165126 -0.45773476 0.25653037 0.028357718 0.0071032676 -0.044152837
-0.2378443 -0.11605882 -0.0031879325 0.10624748 0.087568596 0.097481355 0.055726122 -0.055582255
0.002120471 0.03891588 0.22663495 -0.17747773 0.015018594 -0.1613781 -0.052118022 0.06447227
-0.019942341 0.07934587 -0.11169819 0.20692626 0.11135244 -0.102058634 0.56274694 -0.0855538
0.3546603 -0.14593041 0.08393322 0.32071996 0.07214674 -0.04981058 -0.24388699 -0.15515666

fc3.weight f4 [32, 64]
00000000: 6d2f 97bc 9f48 a8bd f819 9f3d 65c7 3b3e
00000010: 0f59 dfbc 5ad7 6f3e ab50 ca3d f72a 18bd
00000020: 8a1f 21be 36a1 aebb 42d6 16be 8cc6 ffbd
00000030: f91f 983e 340e 55be fe93 95be d240 063e
00000040: 396c 18be 55f2 cf3d 21db a2be 99a0 b6be
00000050: e015 7dbe a2a8 b1be 65aa 15bd 8624 babd
00000060: abee 84bd 1cdd a9bb 7b0b 8abd f91d c4be
00000070: 9a7a 8f3e 5c0d cebe 6ba0 39bd 5b83 20be
00000080: 8d48 66be 4e01 60be 39fa 943c 2f7d 5f3e
00000090: 9d03 68bc 6ba1 063f 0879 47be aefc 143e
000000a0: 84c4 4dbe a471 5e3e 8bdc f53c 3bad 15bf
000000b0: 8be9 2dbe 6fda e6be b7e0 dabd 2962 19be
000000c0: db8a 043d 0ab5 913e 6fdd 163e f7f6 da3d
000000d0: aa24 813d 4a2a 8dbd b9aa 373e 9746 573e
000000e0: cbe6 413e c2b8 0b3e ceb8 dd3d 53c1 a2bd
000000f0: b0bd f33d 993f fd3c d9ea 043e 2153 353e
00000100: b022 65bd 9565 96be e2b5 f63d d203 86bd
00000110: 7472 2fbe c643 3cbd 66de c9bc 22e8 0bbe
00000120: 3a89 debc d2f2 96bd 2689 a5bc cf41 b1be
00000130: 4aa4 483e cc3e bbbd 53da c0be 9b93 c7be
00000140: 7caf c8be 22f8 92bd bae6 64be 5562 113d
00000150: 3a65 a9bd 1b66 13be a1a2 8bbe 37bb 4abe
00000160: ca16 3bbe 1a01 a93c 176d e33d b773 49be
00000170: c4e9 92bd 560a c6be c7ff a53d 7329 08be
00000180: 0197 78bd 8d78 013e 825e 40bd c4ce 45be
00000190: 34f2 f03d bbce 78bc b97c 00be 7b0d 883e
000001a0: a833 31bd 5c46 7ebc eb03 14be 50ef 8fbe
000001b0: 4a00 83be ceb5 9dbe 34ec 5dbe de93 01bf
000001c0: e7db 1fbe 9feb 26bc a80c 18be bfdd eabd
000001d0: 1ce0 febd 3e2c cd3d 0466 e4be 0da1 9b3d
000001e0: 2b39 933d efe0 d03d 1109 093e c367 15be
000001f0: 9afb 123e 2263 87bd 0020 d03d 2406 11be
00000200: 161d 03bc 13d9 8d3c 7a34 073e cb9b 853e
00000210: e511 35bd 5a50 30bf 7b90 623e 6805 99bc
00000220: 3c8e 37be 4de8 b5be 0773 5e3e 1179 f93e
00000230: c23c 9cbe 4b5b 173e 64e5 7cbe 6527 d6bd
00000240: efb4 dc3d f6a2 1e3e b92a 5ebe b87b 7a3e
00000250: fe32 1f3e cb03 323d 42a9 fd3e 58f8 78bd
00000260: 1366 9dbe f086 3a3e ab0f c6bd 1d2c a23e
00000270: 4063 cfbe ebb7 d5bd abcd 04ba 5258 5abe
00000280: 38f0 463e de4f 71be 6930 f1bd b9ee 0fbb
00000290: 7eb7 f4be e821 a03d 9921 953e 7622 d23b
000002a0: 0e47 81bd e738 b63e 2a99 11bd 7c21 ce3c
000002b0: 2ddf a8be 4ede 4c3e 42bf cb3e 307c e63d
000002c0: 20fe 373e 8144 27be c3af 303e c1f8 c4bd
000002d0: 3126 b6be 537e 4c3e 010a 9cbe c65c f83c
000002e0: 72d3 c03d 7943 393e b17e dfbc 290e 39be
000002f0: 8a43 d73d 30ba 10bc dc9f aa3e e00e 603e
00000300: 0f3a 4ebd bcb0 93bd a430 c53c 28be 7dbd
00000310: 791b cebe 205b 9dbe 62df bebc fd67 41be
00000320: 04cd 0c3e 9235 3dbe d1bf 0dbe 2b35 aabd
00000330: b4af 283e 9de8 c33e fb2a 43be 6b4e 103d
00000340: 9be1 e1bc 2ed2 863e 1362 773e 193b c9bc
00000350: 4e0e 193e 2984 113e 406a 263e df5e 24be
00000360: e3e8 073e e284 5e3e 5a11 3e3d 109b c43d
00000370: bf6b 88be d920 053e 15da 963e 9e83 dd3d
00000380: fd6e 18bf 865c 823e d830 61be 91ee a4be
00000390: fa62 4dbe 3e3f 17bf 2d2d 32be 3220 703e
000003a0: 2443 583d a749 93be f95b cabe ab39 843e
000003b0: 510c 4bbe 32b8 113e e193 903e 4f2e 32bd
000003c0: 9684 513e 38c7 0cbd ec7a 573e 925c d33d
000003d0: 3700 25be 8a69 6ebe 0a6f b6bd ea05 91bc
000003e0: d7fe 623c 50c8 e4be 645b 36be 22f6 883d
000003f0: c0aa 18bd 2cf3 4fbd 643c 963e a48a 103e
-0.018455232 -0.082169764 0.07768625 0.18337782 -0.027264146 0.23421994 0.098786674 -0.03715035
-0.15734687 -0.0053292764 -0.1473017 -0.12489042 0.29711893 -0.208062 -0.29214472 0.13110664
-0.14885034 0.10153643 -0.31807807 -0.356694 -0.24715376 -0.3469897 -0.036539454 -0.090889975
-0.06490835 -0.005183829 -0.06740471 -0.38304117 0.28023225 -0.40244567 -0.045319002 -0.15675108
-0.22488613 -0.21875498 0.018185722 0.21825098 -0.014161018 0.52590054 -0.19479764 0.14549515
-0.20094496 0.21723038 0.03001239 -0.58467454 -0.16983621 -0.45088527 -0.10687392 -0.14978851
0.032358985 0.28458434 0.14732908 0.10691636 0.06305821 -0.068928316 0.1793622 0.21023022
0.18935697 0.13644698 0.10826264 -0.0794703 0.119014144 0.030914115 0.12980212 0.17707492
-0.055941284 -0.29374376 0.1204641 -0.065436974 -0.17133504 -0.04596307 -0.02464218 -0.1366277
-0.027165044 -0.07370533 -0.020206999 -0.3462052 0.19593921 -0.09142837 -0.37666568 -0.38979802
-0.39196384 -0.07176234 -0.2235364 0.035494167 -0.082712606 -0.14394419 -0.27272514 -0.1979798
-0.18270412 0.020630408 0.111047916 -0.19673048 -0.071734935 -0.3867976 0.08105426 -0.13297062
-0.060690884 0.12643643 -0.04696513 -0.19317156 0.117649466 -0.015186007 -0.12547578 0.26572785
-0.043262154 -0.015519705 -0.1445462 -0.28112268 -0.25586158 -0.30802768 -0.21672136 -0.5061625
-0.1561123 -0.010188012 -0.14848578 -0.11468076 -0.12445089 0.10018204 -0.44609082 0.075990774
0.07188638 0.10199153 0.13382365 -0.14590363 0.14353791 -0.06610705 0.101623535 -0.14162499
-0.00800254 0.017315423 0.13203612 0.26095423 -0.04420652 -0.68872607 0.22125427 -0.018679336
-0.17925352 -0.35528794 0.21723567 0.4872518 -0.30515105 0.14780919 -0.2469688 -0.10456733
0.10776698 0.15491852 -0.21695985 0.24461257 0.15546796 0.04346065 0.49543196 -0.060783714
-0.3074194 0.18215537 -0.09670957 0.3167428 -0.4050541 -0.1043547 -0.00050660473 -0.21322754
0.19427574 -0.23565623 -0.11776812 -0.0021962358 -0.47796243 0.07818967 0.29127195 0.0064127995
-0.06312381 0.35590288 -0.03554646 0.025162451 -0.3298277 0.20006678 0.39794356 0.11254156
0.17968035 -0.16334726 0.17254548 -0.096177585 -0.35576013 0.19970064 -0.30476382 0.030317675
0.0941533 0.18092145 -0.02728209 -0.18071808 0.10510929 -0.008833453 0.33325088 0.21880674
-0.050348338 -0.07211444 0.024071045 -0.061948925 -0.40255335 -0.30733585 -0.023299877 -0.18887325
0.13750082 -0.18477467 -0.13842703 -0.08310922 0.16473275 0.38263407 -0.19059364 0.035231035
-0.027573397 0.2633223 0.24158506 -0.024564313 0.14946863 0.14210571 0.16251469 -0.16051815
0.13272433 0.21730378 0.046403266 0.09599888 -0.26644704 0.13000812 0.29463258 0.108161196
-0.59544355 0.25461215 -0.21991289 -0.32213262 -0.20057288 -0.59080875 -0.17400046 0.23449782
0.052798405 -0.2876713 -0.39523295 0.25825247 -0.19828917 0.14230421 0.28237823 -0.043501195
0.20460734 -0.034369677 0.21042985 0.10320391 -0.16113363 -0.23282447 -0.08907898 -0.017703015
0.013854704 -0.44684076 -0.178083 0.06687571 -0.037272215 -0.050769016 0.2934295 0.14115387

fc3.bias f4 [32]
00000000: 032d 2d3e 5378 67be 7da3 eebd 15ed 9ebe
00000010: f377 a13e b34c 8ebe 422a 05be c59e a23e
00000020: 1898 543e 2c1e 483e b02f 4dbe 839d dfbd
00000030: 8313 50be d45d 69bc 24b3 ecbd 5bd7 893e
00000040: 765c dd3d eb16 e8bd ea79 263e ec3e 9c3e
00000050: d6ea 88be 35ca afbc b7c0 a93e b87a 45bd
00000060: d8e7 fdbd 4d32 083d bfc3 6ebb e6cc 303e
00000070: 8283 823d ca99 ed3e 85e6 02bd 93e9 c73e
0.16911702 -0.22604494 -0.11652277 -0.31040254 0.31536826 -0.27792892 -0.13004401 0.31761757
0.20761144 0.1954276 -0.20037723 -0.10918715 -0.20319943 -0.014243562 -0.11557606 0.26922116
0.10808651 -0.11332496 0.16257444 0.30516756 -0.26741666 -0.021458725 0.33154842 -0.048212737
-0.12397736 0.033251096 -0.0036432592 0.17265663 0.063727394 0.46406394 -0.03195812 0.3904539

fc4.weight f4 [10, 32]
00000000: af9e babe 5fbf 79be ea5a 4abf 71f3 7f3d
00000010: ebb0 133d d46a 17bb 7095 bd3b c03d 7bbe
00000020: c2ba a2be 6f38 b9bd 585b 5dbe 943f 4cbe
00000030: c4ed 9a3d ebb8 38be eefb 483e a809 323d
00000040: 5cc0 46bf 77d4 8c3d 10dd 0bbf 6753 8b3e
00000050: da38 053e b40b 523e d73e 0abf b992 aabe
00000060: 853f 29bf 34ee 94bc d576 543e 9e5a 2a3e
00000070: a794 2fbe d638 bebe 44bb 2dbe 2dd2 6ebd
00000080: af8d 8a3d 6df6 b53b 847f 7a3e defd 423d
00000090: 262d 9bbe 7c81 6ebe 6834 05be 0e2a 27bf
000000a0: c8a8 78bd 3819 96be ca19 e2be 6ce9 f9be
000000b0: 9667 da3d 6e17 c13e 9fd3 c43e ea8c 0ebf
000000c0: c409 4ebe 9f9f 32be 5480 a2bc 2d5c 493e
000000d0: 56ed 69bd 0f92 2bbf af6a afbd 821e 26be
000000e0: e4e8 c83e 92f2 edbe a6b4 4cbf 6ed5 0fbf
000000f0: 4339 ac3e 8ec7 f43d 5e18 9a3e 7bd8 ecbd
00000100: a7ca 0c3d 5fdc 87bd e77a c1bd dd7a 093e
00000110: 3328 7a3e 0e4e f1be 1880 58bd 47dc 463b
00000120: ddc5 213d a4b3 93be 44f7 04bf 5db5 cb3d
00000130: 205f 47be e3ce edbe 678d 7ebe 5a28 af3c
00000140: 0c98 2bbf 8677 23be c349 03bf ee76 82be
00000150: 4aaf 993e 858b 213b 9056 8cbe 5f9a 4d3e
00000160: 1472 873e 5274 2cbe 7384 8bbe 7f10 a43c
00000170: 2109 a03c d853 5fbe 280b 463e 4289 0abf
00000180: 1f13 b7be 639e 59bf b9d0 473e 3c70 41be
00000190: 5f74 353c 3510 92be 139f 7cbe 20dc d1be
000001a0: c285 a13d fa02 c7be 1a18 bebf 4213 aebe
000001b0: 1723 45bc 9723 fbbe f31a 74bc b2e2 a93d
000001c0: 74fb 233e 4a22 db3b 010f 6dbe abcf 14bf
000001d0: 4c06 c8bd 567e a8be b5dd e73d 2968 94be
000001e0: 4dcd cebc 6afd 413e 8d6a 7fbe 6249 873e
000001f0: 3bde 38be f37b 47be aa09 1d3e 9887 783c
00000200: 7fd8 443e c884 5cbd 76b6 163d cc78 b6be
00000210: 98f5 dcbd d17b 22be e555 1cbe f040 3d3e
00000220: 137c b5bd 1c75 683e 7dab 33be 64e7 f83d
00000230: 6938 40be 37e2 ac3e 81df a23c 7439 91be
00000240: ad2c 2cbe 19c8 0b3d 11b0 6a3e 455e 07be
00000250: 6036 9ebe 51c9 1b3e 2531 5ebe 24f9 e13d
00000260: 62cf 50bd 78e0 e8bd 69ec 67be dea7 1dbf
00000270: 1c09 c0be 02a6 85be 1def debe 0d77 73bb
00000280: 2eda 30be b1e1 abbe cf12 c6be 14b7 99be
00000290: 184c cbbe 014c c4bd 1163 39bd 5a25 7dbe
000002a0: 3eee b0be dbc2 3e3d 7632 8cbe f064 e3be
000002b0: a028 823d a6d8 f1be 1709 79be 6fe3 84bd
000002c0: c026 113e 24d6 803d 4e1b 803e f9e9 6cbe
000002d0: e407 d33c bdce e9be 39ae cabe ca97 7abe
000002e0: 550c 9f3d 37f8 ff3c 4ed1 3f3e 6d5a 673e
000002f0: 9219 a73d 82af 533e 38bd 3fbd 4556 91bd
00000300: 006e ea3c d666 a9bd 8a0c f4be 7d13 04bf
00000310: ec01 a6be 8338 2cbe 72b3 b83e a3ea d3be
00000320: 1e38 3bbf 31f3 e1be cd7d 16bf f18d de3d
00000330: c8cf 27bd 699a 81be a022 aa3d 3b80 32bf
00000340: 8b7a e7be 75da 17bf d88b eb3d 2357 84bc
00000350: eeae 52be af3d 1b3e 12a7 f5bf 51c8 99be
00000360: 3ade 89be 86cc 81be a408 853b edf7 f1bd
00000370: 0d12 0d3e c680 353e 45a8 b9bd 6cac 6f3e
00000380: f0e9 59be e816 32bf 0908 a73e 6816 a73e
00000390: 9a31 80be ba09 89bd 9944 1abf 8476 983d
000003a0: 81ea 3c3e f1dd 6d3e ae07 133e 10ee b3bc
000003b0: 224f 733d f367 81be 0f95 f0be 0c7b d33c
000003c0: 1a7c 0ebf 9b55 63bd 2557 87be 2c27 363e
000003d0: d35c 423e 5580 a2bd 19ed 2c3e 6d97 f4be
000003e0: fb17 1ebd 67e1 56be 952c b4bd ebb4 04bf
000003f0: df6d 3fbd b095 8bbd 6c19 a23d 9e78 1abf
-0.3644919 -0.24389409 -0.79044974 0.062488023 0.036057394 -0.0023104446 0.0057856366 -0.24535275
-0.3178311 -0.09043967 -0.21616876 -0.19946128 0.075648814 -0.1803929 0.19627354 0.04346624
-0.7763727 0.06876462 -0.5463419 0.27212068 0.13009968 0.20512277 -0.54002136 -0.33315066
-0.6611255 -0.01817999 0.20748456 0.1663613 -0.1714655 -0.37152737 -0.16965967 -0.058305908
0.06765305 0.005553058 0.24462706 0.047605388 -0.30307883 -0.23291582 -0.13008273 -0.65298545
-0.060707837 -0.29316115 -0.441603 -0.488109 0.10664289 0.37713188 0.38442704 -0.5568377
-0.20120913 -0.17443703 -0.019836582 0.19664069 -0.057111107 -0.6701974 -0.0856527 -0.16222575
0.3924018 -0.4647413 -0.7996315 -0.5618504 0.33637437 0.119521245 0.30096716 -0.11564728
0.03437295 -0.06633829 -0.0944727 0.13425775 0.24429397 -0.47129864 -0.052856535 0.0030343698
0.039495338 -0.28847992 -0.519398 0.09946702 -0.19469881 -0.46446905 -0.24858628 0.021381546
-0.6702888 -0.15963563 -0.51284426 -0.2548136 0.30016547 0.002464981 -0.27409792 0.20078419
0.26454222 -0.16841248 -0.27249488 0.020027397 0.019535603 -0.21809328 0.19340193 -0.5411569
-0.35756776 -0.85007304 0.19513215 -0.1889047 0.011075108 -0.2852799 -0.24670057 -0.40988255
0.078868404 -0.38869458 -1.4851105 -0.33999068 -0.012032292 -0.4905059 -0.014899003 0.08295192
0.1601389 0.006687437 -0.23150255 -0.58129376 -0.09766826 -0.32908887 0.11321584 -0.28985718
-0.02524438 0.18944326 -0.2494299 0.26423174 -0.18053524 -0.19480877 0.15335718 0.015169047
0.19223212 -0.053837568 0.036795102 -0.35639036 -0.10789031 -0.15867545 -0.15267141 0.18481803
-0.08861556 0.22700924 -0.17545886 0.12153509 -0.18771519 0.33766338 0.019881966 -0.28364146
-0.16813917 0.034126375 0.22918727 -0.13219555 -0.3090086 0.15213515 -0.21698435 0.11033848
-0.050979026 -0.11370939 -0.22648777 -0.6158427 -0.3750695 -0.26103216 -0.43541804 -0.0037149817
-0.17270729 -0.33570626 -0.38686225 -0.3002249 -0.39706492 -0.09584809 -0.045260493 -0.2472128
-0.34556764 0.046572547 -0.2738225 -0.44412947 0.06355405 -0.47235602 -0.24319874 -0.06488692
0.14174938 0.06290844 0.25020832 -0.23136128 0.025760598 -0.4566554 -0.39586046 -0.24471965
0.07766024 0.031246288 0.18732187 0.22593088 0.08159174 0.2067242 -0.046811312 -0.07096533
0.028616905 -0.082715675 -0.47665817 -0.51592237 -0.3242334 -0.16818433 0.36074406 -0.4138995
-0.73132503 -0.44130853 -0.58785707 0.10866917 -0.04096964 -0.25313118 0.083073854 -0.69726914
-0.4521068 -0.59317714 0.115012825 -0.016154831 -0.20574543 0.15160249 -1.9191611 -0.30035642
-0.26927358 -0.25351351 0.004059868 -0.11814866 0.13776417 0.17724904 -0.09065298 0.23405617
-0.21280646 -0.695662 0.32623318 0.32634282 -0.25037843 -0.06691308 -0.6026092 0.0744448
0.18448831 0.23229195 0.14358398 -0.021964103 0.05940164 -0.2527462 -0.46988723 0.02581551
-0.55658114 -0.05550156 -0.26433674 0.1778838 0.18980722 -0.07934634 0.1688732 -0.4777178
-0.03859709 -0.20984422 -0.08797566 -0.5183856 -0.04673564 -0.0681566 0.07915005 -0.603403

fc4.bias f4 [10]
00000000: 94a2 04be 4a2e 28bd 4247 093c d5d3 653c
00000010: 8a0d bd3c 1f99 80bd cb7a 9dbe 9d0c 3fbe
00000020: bf79 c73e 6be7 323a
-0.12952644 -0.04105977 0.008378806 0.0140275555 0.023077745 -0.062792055 -0.30757746 -0.18657155
0.38960072 0.0006824645
